models/model_city_1_test.bin (torch, 275116 bytes, 6 tensors)

linear1.weight f4 [256, 4]
00000000: 3cbe 62be 5443 d2be d02b f4be e0cd f0be
00000010: af25 5ebf 47f6 a5bf a13a 76bf d629 84bf
00000020: 6240 d23f 5394 b1bf f09a 8b3f 9501 ec3f
00000030: 6080 2a3d 8a99 2dbf 32c1 eabd ec5e e5be
00000040: 2367 c03d ef4a c1be e238 81bf 37ac 22bf
00000050: 612d 60bf 22fe 643d 579a 54bf ce84 80be
00000060: 28d4 d0bd f0d4 afbe 2024 52bd 50b5 7dbd
00000070: 205e 22be 93f4 b4bd 80bc 69bd 308f c0be
00000080: 06b5 d6be a296 03bf 2132 d5be 25b3 9ebe
00000090: 0502 dcbf 5589 04bf 57ec 20c0 9fd2 0b3f
000000a0: 54ad c5be b8bf 63be 8472 a2be 48cf ebbd
000000b0: 7dce 5bbe d4c8 06bf e0bb 98bf 3da1 bfbe
000000c0: 5617 11be 81d7 e9be dc34 83bf f963 f4be
000000d0: eb99 74bf b6a1 85bf 7712 c3bf f094 13c0
000000e0: 3c08 6fbe 8b3d ddbe 2f18 9cbe 508c 37bd
000000f0: 7565 1fbf fe1a c6bc ef92 29bf a176 b1bd
00000100: 4dab aebe e238 60be f4fa c8bf eab0 59be
00000110: dea7 0dbe e35b ddbe ca09 52bf 253d 10bf
00000120: 0320 9cbe aa57 debe 8725 3ebf 4ae8 98be
00000130: fd75 3ec0 f8cd a1bf d459 2cc0 39e6 3ac0
00000140: 80e7 85bb 6876 e1be 5efa 80be eca3 3bbe
00000150: c2ba cabd aef8 16be dd16 88bf 4fda 0e3d
00000160: a891 47c0 a2e3 efbf e628 01c0 a91d f2bf
00000170: fba6 3fbf 4193 5cbe 0c34 61bf a4fb 30be
00000180: 630f b93d b0e6 a4be 0af8 d9be 6efb 81bf
00000190: 0b17 8fbe e09b a1be b563 34bf 6c70 09bf
000001a0: fc44 70be bc3a 63be d4a6 fdbe 18a2 a4be
000001b0: ea0c adbe f6e1 14bf 0269 a0be 23cd 36be
000001c0: 3607 d9be 3667 abbe 828a 9cbe cb6f 91be
000001d0: b48b 3bbe 0971 aabe cdc8 2abf 83f4 cdbe
000001e0: d0d1 7dbe 2847 febe 0266 f8be 5b5b 6bbd
000001f0: aaa4 f4be 7dc9 2dbf 7a47 8abe 4e53 f73d
00000200: 900d 543d 9c8e 73be 8953 fdbe 8038 7dbe
00000210: 44e2 a8be 4b0b 4abf e14f 35bf ef5e 9ebd
00000220: 4a5a 85be 810e 34bf 68e4 16be d4fa b3be
00000230: 75a4 c9bf 004f 6cbe a73e 09bf 88c2 27be
00000240: ffcc c8be 604a 2ebf 019d 6abf 4137 5ebf
00000250: d4d6 e2be d286 80bf c7c4 01bf 5c16 dabe
00000260: d5f3 cdbe a172 b8be 5c59 14bf 0cd7 39bf
00000270: 52d6 63bf 7071 6fbe a911 99bf d46d bebf
00000280: 3e98 d6be 8892 a9be dac1 84be 90c2 aabe
00000290: c521 ebbe f0a3 f6bc 3138 eebf 314d f7bf
000002a0: 595b 75be e40c 8cbf 0b3d 6ebf 3d44 8bbf
000002b0: e056 8dbe 02a8 10bf 3640 49be e8a7 22be
000002c0: 6036 eabe c57c 07bf 6d6e cebe 947d 5ebe
000002d0: e570 5a3d 6e97 15bf 2dfc 81bf ede0 77bf
000002e0: b098 eebe 7c6a 1bbf 6cdf 30be 5c97 00be
000002f0: 0083 e7bb 2ab8 e2be e01e 4bbe dd6c 00be
00000300: 5649 2640 d160 f93f 2de1 58c0 3dcc d3be
00000310: 86a5 d4bf 070c 02bf 14b2 69be 3e74 30be
00000320: 85b3 7bbf 9a50 c9be aefb afbe 0898 edbe
00000330: 3c18 9cbe 9f9a 2fbf afcf 35bf c5de 88bf
00000340: 8436 74be 10eb 3cbf b021 33be 0090 5dbc
00000350: eea5 c4be b12c 28be bc07 c1be 92a6 4fbd
00000360: a352 8fbf df2d e9bf 5811 27c0 589e 1ec0
00000370: 804b cabd 446b f2be d4f1 96be 5f0c febe
00000380: da9b 9bbe aca3 75be c147 5cbf d2f6 aebe
00000390: 4fce ebbe e412 a7be 7751 34bf 22de a6be
000003a0: 7856 14be a961 00bf 6d40 d0be 60f6 5d3d
000003b0: 3920 c2bd aa16 32be 56b9 b6bf 1eff 2abf
000003c0: 6f1a 2cbe 61ae 2cbf dda8 aabf c26a edbe
000003d0: 511c 7e3d 0927 f3be f6df 14bf 60f7 73be
000003e0: 708c 4dbd 0504 a0bd 531b 23bf 76e0 edbe
000003f0: 18ad b1bd 57ef 05bf e755 44be f82b f2bd
-0.22142881 -0.41066992 -0.47689676 -0.4703207 -0.8677625 -1.2965783 -0.9618321 -1.0325267
1.6425898 -1.387339 1.0906658 1.8437983 0.041626334 -0.67812407 -0.1146263 -0.44798982
0.09394672 -0.37752482 -1.0095484 -0.6354403 -0.8756924 0.055906422 -0.83048004 -0.25101322
-0.101967156 -0.34342146 -0.051303983 -0.06194049 -0.15856218 -0.08835711 -0.057064533 -0.37609243
-0.41934985 -0.5140172 -0.41639808 -0.3099605 -1.7188116 -0.5177205 -2.514425 0.5461826
-0.386088 -0.22241104 -0.31727993 -0.11514145 -0.21465488 -0.5265019 -1.1932335 -0.37427703
-0.14169058 -0.4567223 -1.0250506 -0.47732523 -0.9554736 -1.0439975 -1.524001 -2.3059654
-0.23342985 -0.43211016 -0.304872 -0.044811547 -0.62264186 -0.024182793 -0.6623983 -0.08665205
-0.34115067 -0.21896699 -1.5701585 -0.21258894 -0.13833568 -0.43234167 -0.82046187 -0.563433
-0.30493173 -0.43426257 -0.7427601 -0.29864722 -2.9759514 -1.2640982 -2.6929827 -2.9203017
-0.004086435 -0.4403565 -0.25191015 -0.1832425 -0.098989025 -0.14743301 -1.0631977 0.034876164
-3.1182652 -1.8741343 -2.0181212 -1.8915302 -0.74864167 -0.21540548 -0.8797004 -0.17283493
0.09036138 -0.3220725 -0.4257205 -1.0154855 -0.27947268 -0.31564236 -0.7046464 -0.5368717
-0.23463815 -0.22190374 -0.49541342 -0.32154918 -0.33798915 -0.5815729 -0.31330115 -0.17851691
-0.42388314 -0.3347718 -0.30574423 -0.28405604 -0.18315011 -0.33289364 -0.6671265 -0.4022561
-0.24787068 -0.49663663 -0.48515326 -0.05746017 -0.4778188 -0.6788557 -0.27007657 0.12076436
0.051770747 -0.2378487 -0.49477795 -0.24728584 -0.32985127 -0.7892348 -0.7082501 -0.07732951
-0.26045448 -0.7033463 -0.14735568 -0.35152304 -1.5753313 -0.23077011 -0.53611225 -0.16382802
-0.392189 -0.6808224 -0.9164582 -0.8680306 -0.44304526 -1.0041144 -0.50690883 -0.42595184
-0.40225092 -0.36024955 -0.5794885 -0.7259376 -0.889989 -0.23383117 -1.1958514 -1.4877267
-0.41913027 -0.33119607 -0.25929147 -0.33351564 -0.45924202 -0.030107468 -1.8610898 -1.9320432
-0.23960628 -1.0941434 -0.93061894 -1.08802 -0.27605343 -0.5650636 -0.19653401 -0.15884364
-0.4574461 -0.5292476 -0.40318623 -0.21727592 0.05333032 -0.5843419 -1.0155083 -0.96827585
-0.46600866 -0.6070936 -0.17272729 -0.12557739 -0.007065177 -0.4428113 -0.19835997 -0.12541528
2.598226 1.9482671 -3.3887436 -0.4136676 -1.6613014 -0.507996 -0.22821838 -0.17231843
-0.983208 -0.39319307 -0.34371704 -0.46405053 -0.3048724 -0.6859531 -0.71020025 -1.0692984
-0.23848921 -0.73796177 -0.1749332 -0.013523102 -0.38407844 -0.16423298 -0.37701213 -0.050695963
-1.1197094 -1.8217124 -2.6104336 -2.4784145 -0.09877682 -0.47347462 -0.29481375 -0.49618813
-0.30392343 -0.23988217 -0.8604699 -0.34172684 -0.46055838 -0.326316 -0.70436805 -0.3259135
-0.1448611 -0.5014902 -0.40674153 0.05419004 -0.09478802 -0.17391458 -1.427531 -0.6679553
-0.16806959 -0.6745358 -1.3332783 -0.46370512 0.062038723 -0.4749072 -0.5815424 -0.23824835
-0.05018276 -0.07813267 -0.6371357 -0.46460313 -0.08675593 -0.5231833 -0.19173394 -0.118247926

linear1.bias f4 [256]
00000000: a86b 7bbe efdf cbbf 0b50 46c1 5464 28bf
00000010: 5463 83bf c7cc 84c0 dc64 07be 9eb6 2fbf
00000020: cb08 01bf 8018 98c1 8286 00bf 6539 73bf
00000030: 7f46 8ebf bd25 1fc0 46a4 eabe f516 8ebf
00000040: 448e 77c0 d311 3cbf 6ab9 87bf ad0b 53c0
00000050: 0d55 67bf 8de4 c3c0 6930 3bc0 606b 93bf
00000060: 3b24 93bf 1ddc afbf 0421 f6be 072a 02bf
00000070: 0b1f 68bf 977c 30bf 07af 1ebf 1ad0 48bf
00000080: 44ad 46bf 9536 8cbf 4431 bdbe 56be 17c0
00000090: 5235 9ebf 8c2c 8fbf d31a b5bf 56ae ecbf
000000a0: 82c3 86bf 8593 bbbf e667 65bf 659f bebe
000000b0: 5227 83bf 0cac 8dbf 7290 e5be 0129 5ebf
000000c0: 2899 81c1 eec2 1ac0 4c1f e0bf 7645 60bf
000000d0: cf8b a2be 471f 77bf f404 15c0 0a55 8bbf
000000e0: a4e6 c9be 3f87 6abf 9ddb 4cbe 5b6b cdbf
000000f0: 8d8c 5cbf f509 53bf d5f6 4cbf aee1 eebe
00000100: 17e8 00c1 695c 07c0 5a09 02bf 0bcb 74c0
00000110: dce4 40bf c7cd 23bf aa07 35c0 c718 93c1
00000120: 32f4 20c0 0f0b adbf 0209 e2be d11d 45bf
00000130: 28bc 72be dc84 5dbf eaa9 84c0 4969 19c1
00000140: c272 62bf 771d 87c0 3c55 55bf 37d7 65bf
00000150: cd10 04bf 92cd 30bf 4660 62c0 4896 d2bf
00000160: 3a78 3ebf 60de 35bf 3619 63bf b5d4 5abf
00000170: 8fec 90be 38c7 36bf 15a7 02c1 7da0 74bf
00000180: ac8b 4abf 927b 2abf c95a 1ec0 753d d3be
00000190: f9fe 9bbf 5f84 c6be c14f 66c0 9a99 79bf
000001a0: 3e33 cabe 37a6 26bf 5dab dbc0 e721 46c0
000001b0: 2b6e 5b41 5f98 54c1 3486 9cbf c2b3 0cbf
000001c0: 08dd 83bf a59e e1c0 33f5 8cbf 8e35 5cbf
000001d0: 985d 55bf bb7b 70c0 ac00 1abf 167b 77c0
000001e0: 5ff1 36c0 4622 1cc0 81a9 dfbe 555c 72bf
000001f0: fd33 a8be 60cd 54bd 5086 24bf 1603 26bf
00000200: 94e9 38bf 8ed2 f53f f6a2 a5be cdbb 89bf
00000210: e6e2 f0c0 a6fe 9cbf 2353 09bf 969b 07bf
00000220: a1cb dbbf ad42 a9bf d5c1 74bf ac39 00bf
00000230: 5ded 99bf 7b57 49bf 9e2a babe 0023 60bd
00000240: 1f73 aabf b0f2 86bd 0303 c4be f936 42bf
00000250: 7636 85bf 8491 31bf e42b 89bf bfe4 0cc0
00000260: 40eb 64bf b7ff 2cbf 8503 71c0 93c5 98bf
00000270: ecfe 00c0 adc8 82c0 2146 a4bf e7c6 81bf
00000280: 3148 19bf 8b37 dfc0 db39 5dbf 910c c0bf
00000290: 7e30 aabe da84 3fc0 baf1 e2c0 6965 75c0
000002a0: fcaf d7bf 269b 92be 264c ffbe 499a 9cbf
000002b0: 966a 03c0 8ed1 5fc1 1c7e 7abf 533a 65bf
000002c0: c43a bebf 246c 15bf 29e5 60bf ce29 20c0
000002d0: 44e2 0abf 82a8 0cc0 f109 a9bf b29b 81bf
000002e0: ea97 06c0 3dcf 81bf be3f 81bf 54d9 8bbf
000002f0: 8824 99c1 0f93 d3bf de67 82c0 cc7b cfbf
00000300: 7386 58bf 042d f7bf f0b2 eec0 252f 90bf
00000310: b3b1 aebf bc6a 77c1 1f5b 2cbf d993 82bf
00000320: 74e0 e6bf 7740 d6be 763f c1bf b326 24c1
00000330: aec8 17bf 52ff 81bf 121f c0be 0ab0 7dbf
00000340: 5038 88bf 9f52 03c0 62ce f9be 846b f4bf
00000350: 8e6e 3ec0 23be cbbe 86a6 00c0 b0e8 65c0
00000360: a703 4cbf d075 14bf 64e1 1abf 0727 83bf
00000370: fae9 cbbf 7bd9 ecc0 f12a 1fbf 574f babf
00000380: 623e 7ac0 eb81 3c41 1691 42bf 5793 86c1
00000390: 2270 93bf f8da e4c0 ef39 98bf c2f4 eabe
000003a0: da57 edbf 706c abbd c02a f9c0 005a dabd
000003b0: 0de2 b7bf 00ed 61bf 64ba 5bbf e625 36bf
000003c0: 7f4d f4be 84d3 b7bf 798a 5ebf 4a0f 8dbf
000003d0: 2a0e 06bf b1a0 86c0 69ec 6cbf f677 2bbf
000003e0: c6e1 49c0 ec5a 0dbf 9a26 82c0 21ec 42c0
000003f0: 87be 88c0 6d57 6cbf 68bd 2dc0 3980 5dbf
-0.24552786 -1.5927714 -12.394542 -0.6577809 -1.0264688 -4.149997 -0.13222069 -0.68638027
-0.5040404 -19.011963 -0.5020524 -0.9500945 -1.1115264 -2.4866784 -0.45828456 -1.1100756
-3.8680582 -0.734647 -1.0603459 -3.2975876 -0.9036415 -6.1216493 -2.9248297 -1.1517143
-1.1495432 -1.3739048 -0.48072064 -0.5084538 -0.9067237 -0.6894011 -0.6198582 -0.7844254
-0.7760813 -1.0954157 -0.3695165 -2.3709922 -1.2360022 -1.118547 -1.4148811 -1.8490703
-1.0528414 -1.4654394 -0.8961166 -0.37230983 -1.0246375 -1.106813 -0.44836766 -0.86781317
-16.199783 -2.4181476 -1.7509551 -0.8760599 -0.3174729 -0.965321 -2.3284273 -1.0885327
-0.39433777 -0.9161262 -0.20005651 -1.6048387 -0.86151963 -0.8243707 -0.80064136 -0.46656555
-8.056663 -2.1150153 -0.5079552 -3.8248928 -0.7534921 -0.63985866 -2.8285928 -18.387098
-2.5149045 -1.3519 -0.44147497 -0.7699862 -0.23704588 -0.8653085 -4.1457415 -9.588204
-0.88456357 -4.222347 -0.8333318 -0.89781517 -0.51588136 -0.69063675 -3.537126 -1.6452112
-0.744022 -0.7104244 -0.88710344 -0.85480815 -0.2830548 -0.71397734 -8.1657915 -0.95557386
-0.7911937 -0.66594803 -2.474291 -0.41257825 -1.2187186 -0.38772866 -3.5986178 -0.975
-0.3949222 -0.65097374 -6.8646684 -3.0958192 13.714396 -13.2872 -1.2228456 -0.5496179
-1.0301828 -7.050616 -1.1012329 -0.8601922 -0.8334594 -3.757552 -0.60157275 -3.8668876
-2.8584821 -2.439592 -0.4368401 -0.9467214 -0.32852164 -0.051953673 -0.64267445 -0.6484846
-0.7223141 1.9204881 -0.32350892 -1.0760437 -7.5276976 -1.2265213 -0.5364248 -0.5297178
-1.7171518 -1.3223473 -0.95608264 -0.50088 -1.2025563 -0.7864911 -0.3636064 -0.05472088
-1.3316382 -0.06589258 -0.38283548 -0.7586513 -1.0407245 -0.69362664 -1.0716519 -2.2014616
-0.89421463 -0.6757769 -3.7658398 -1.1935295 -2.0155592 -4.0869966 -1.2833902 -1.0138825
-0.5987578 -6.97553 -0.86416405 -1.5003835 -0.33240122 -2.9924836 -7.0920076 -3.8343146
-1.6850581 -0.28633994 -0.49862784 -1.2234584 -2.0533805 -13.988661 -0.9784868 -0.8954212
-1.4861684 -0.58368134 -0.8784967 -2.5025516 -0.54251504 -2.197785 -1.3206159 -1.012564
-2.103022 -1.0141369 -1.0097578 -1.0925698 -19.142838 -1.6529254 -4.075179 -1.6209655
-0.84580153 -1.9310613 -7.459343 -1.1264387 -1.364798 -15.463558 -0.6732654 -1.020137
-1.8037248 -0.41846058 -1.5097492 -10.259448 -0.5929059 -1.0156043 -0.37523705 -0.9909674
-1.0642185 -2.0519178 -0.4879027 -1.9095311 -2.9754977 -0.397935 -2.0101638 -3.592327
-0.79693073 -0.5799227 -0.6050017 -1.0246285 -1.5930779 -7.401548 -0.621749 -1.4555463
-3.9100575 11.781718 -0.76002634 -16.821943 -1.1518595 -7.1517296 -1.189268 -0.4588986
-1.8542435 -0.08370292 -7.7864685 -0.106616974 -1.436586 -0.8825226 -0.85831285 -0.7115158
-0.47715375 -1.4361424 -0.8693004 -1.1020291 -0.5236536 -4.2071157 -0.92548233 -0.6697992
-3.154405 -0.5521686 -4.067212 -3.0456622 -4.2732577 -0.923209 -2.7146854 -0.8652378

linear2.weight f4 [256, 256]
00000000: 68ae 7a3c 4093 bd3b 5acb 1bc0 4021 6fbb
00000010: 36b9 713d 3ea9 42bd 48b8 5cbd 249e e1bc
00000020: e84e 6dbc 287c b4bc 8c7c 633d 80b9 ff3c
00000030: 847a e53c d0d8 87bb c874 0f3d de17 253d
00000040: e803 15bc 5ff1 14bf 4e46 5abd 74aa 7bbd
00000050: 5c9e bcbc 533d 0abf c0b8 5d3b 30db ec3c
00000060: 5e9c 5bbd 30d7 ad3c 28f0 303c d835 a53c
00000070: 706d 2fbc d037 7b3c bc89 85bc dcdd 273d
00000080: 5c53 503d 14d2 1a3d d88c cebc ee45 453d
00000090: bc23 dcbc 1077 16bd 60d3 dabb 9888 323c
000000a0: 58d3 0bbc b801 9a3c 1cd3 a2bc d428 bb3c
000000b0: dc9e 84bc de2f 423d b4e4 b7bc a472 d03c
000000c0: 540c f2bc 9ede 0abd 0008 39bb d07b 883b
000000d0: 2892 5d3c 060b 38bd d875 033c d4fe 413d
000000e0: f80e 113d 0e5a 303d a83f 893c 203f 6bbd
000000f0: a228 12bd 8c2c e33c 1056 bdbb ac77 cb3c
00000100: eaa3 33bd 40a4 febc d6c6 0cbd d251 423d
00000110: 509b 313d f428 58bd 8cee 37bd 9cdf 163d
00000120: e030 56bc e0e7 d8bc 2a88 4f3d 08b3 2e3d
00000130: 26be 12bd 06da 71bd c6ce 01bd f807 1cbc
00000140: 98e4 353c 44ca 74bd 3859 5d3d 2096 223d
00000150: 6ce7 92bc b074 d1bb 3818 05bc e0ee df3c
00000160: 0074 25bc 70fb 7b3c 8061 93bc 8038 5a3a
00000170: 4ed3 073d 10b1 e6bc 8ea8 10bf c049 83bb
00000180: eea5 27bd 8cd4 f3bc 5047 21bd 186c 75bc
00000190: 0e4a 36bd a8bb 143c f4e9 19bf 564a 2f3d
000001a0: 3c08 fb3c a43a 053d f877 07bf 90ff a43b
000001b0: 0a00 1bc0 ce31 243d 1c74 6cbd 58dc 79bd
000001c0: 50f9 4dbd d573 1cc0 163f 2ebd f091 1ebc
000001d0: d202 623d 4271 203d 94a2 13bd e143 21bf
000001e0: 5c4a fdbc 9ce7 af3c 60f0 e3bc 6802 babc
000001f0: 64af 07bd 5e64 0cbd 1030 b53c 2853 433c
00000200: 7a5c 63bd 5b92 1fc0 32d2 6f3d 5a34 6f3d
00000210: e0c1 b13c bc77 21bd bae6 603d 12bc 14bd
00000220: 627f 46bd 10b9 063d 4c14 38bd ec39 19bd
00000230: 00f0 aabc 700e 2c3d 0c71 043d 20fa f03b
00000240: ccde c1bc 28db 0b3c d024 a13c b40b b6bc
00000250: d4f1 14bd 20c1 e63b 3805 1b3c e854 943c
00000260: 024b 633d 4e14 4abd a88e 1cbc 349f 383d
00000270: bea6 33bd 6a73 12bf 14a2 dbbc ac96 e0bc
00000280: 34c3 493d 62cc 0d3d d284 0abd f8a3 61bc
00000290: b2a3 4abd 0210 71bd 644b 38bd 80fd 753d
000002a0: 84d9 30bd 7abf 473d fc80 f6bc 0891 813c
000002b0: 0054 a3bc e5fc 0bbf 0008 503d 60dd e83b
000002c0: 488c 27bd 2a1c 4dbd e054 43bd 68a7 463c
000002d0: 70dc a93c a064 0fbd b80c 073d 40b7 b7bb
000002e0: 9099 ba3c b431 e63c 90bb 70bc e016 84bc
000002f0: f992 1fc0 d0e7 60bd 4044 6c3b a076 debb
00000300: 5087 cf3c 0040 da3a f0d7 bd3b 123b 5c3d
00000310: 1078 ce3b a340 17bf 9044 c0bc 685c 22bd
00000320: 4462 f03c c0fa e6ba 7a8e 2f3d 642d 50bd
00000330: f2f9 29bd c692 523d c433 663d 4077 573c
00000340: 72b5 313d 2e11 7fbd 0afb 623d 1651 5f3d
00000350: b401 13bd 60f8 b5bc 407f 61bd 48a8 18bf
00000360: 48f6 c8bc d891 85bc 34ca 14bd ccf6 ccbc
00000370: b0ea 82bc 1c00 21bf 0c02 a7bc 4eb8 593d
00000380: ba33 29bd fd73 1dc0 0894 2abc 4268 2e3d
00000390: 9cc0 8e3c 4060 2cbc c071 9d3a 7456 84bc
000003a0: 9ef5 54bd e0c4 f83b cf7d 0dbf e49f b9bc
000003b0: e21e 28bd 5098 9dbb d457 a1bc 483f 503d
000003c0: f4be 22bd b892 023d 30a8 8bbc 80e1 173b
000003d0: 809e 343c ccb0 58bd ce06 61bd e057 d53b
000003e0: 1cf7 bdbc 425a 19bd 22ea 4ebd e08f 293d
000003f0: 881c 523c 9008 34bd cc25 e5bc 6692 07bd
0.015300371 0.005785376 -2.4342866 -0.0036488324 0.05901452 -0.047524683 -0.05388668 -0.027541228
-0.014484145 -0.022031859 0.0555387 0.031216383 0.028012522 -0.004145719 0.03502348 0.040305965
-0.00909517 -0.58180803 -0.053289704 -0.061441854 -0.02302473 -0.53999823 0.0033832043 0.02891311
-0.05361592 0.021220773 0.010799445 0.020167276 -0.010707244 0.015333131 -0.016301028 0.040983066
0.050860748 0.037798002 -0.025213644 0.048162393 -0.026872508 -0.03673464 -0.00667803 0.010896824
-0.008534275 0.018799648 -0.019876055 0.022846617 -0.016189031 0.04740893 -0.022447921 0.02544529
-0.029546894 -0.03390371 -0.0028233528 0.00416515 0.013523616 -0.044932388 0.008023702 0.047362164
0.035414666 0.043054633 0.016753986 -0.057433248 -0.03568328 0.027731203 -0.0057780817 0.024837337
-0.043857493 -0.03108418 -0.034369312 0.04744131 0.04336101 -0.05277343 -0.04490523 0.036834344
-0.013073176 -0.026477754 0.050666966 0.042651206 -0.03582587 -0.059045814 -0.031691335 -0.009523384
0.011101864 -0.059763208 0.054040164 0.03969395 -0.017932616 -0.006392084 -0.00812345 0.027335584
-0.010098457 0.015379772 -0.017990828 0.0008324459 0.0331605 -0.028160602 -0.56507194 -0.0040065944
-0.040929727 -0.029764436 -0.03937465 -0.014979385 -0.044504218 0.009077944 -0.6012261 0.0427955
0.030643575 0.032526627 -0.5291743 0.0050353482 -2.4218774 0.04008656 -0.057727918 -0.06100115
-0.05028659 -2.4445698 -0.042540632 -0.009678349 0.05517847 0.03917051 -0.03604372 -0.629942
-0.030919246 0.021472745 -0.02782458 -0.022706226 -0.03312625 -0.034275405 0.022117645 0.011921681
-0.055508114 -2.4933078 0.058550067 0.058399536 0.021698892 -0.03942083 0.054907538 -0.03631217
-0.048461325 0.032891333 -0.04494123 -0.037408754 -0.020866394 0.042005956 0.032334372 0.007354036
-0.023665808 0.008536138 0.019670874 -0.022222377 -0.036363438 0.0070420653 0.0094616935 0.018106893
0.055491455 -0.04933577 -0.009555496 0.045073703 -0.04386019 -0.5720736 -0.026810683 -0.027415596
0.049258426 0.034618743 -0.033818074 -0.013772003 -0.04947252 -0.058853157 -0.044993773 0.06005621
-0.04317619 0.04876659 -0.030090801 0.015816227 -0.019937515 -0.5468276 0.05078888 0.007106468
-0.040905267 -0.050075687 -0.047688365 0.012124874 0.020734996 -0.035008073 0.032971114 -0.005606562
0.022778302 0.028099872 -0.014693156 -0.016124189 -2.4933455 -0.054908574 0.0036051422 -0.0067890435
0.025333077 0.0016651154 0.005793564 0.05376727 0.0063009337 -0.59083 -0.023470193 -0.039638907
0.029343732 -0.0017622337 0.042860486 -0.050824538 -0.041498132 0.051409505 0.05620171 0.01315099
0.04338593 -0.062272243 0.05541519 0.05452069 -0.035890296 -0.022213161 -0.055052996 -0.59631777
-0.024531499 -0.016304895 -0.03632565 -0.025020026 -0.015981048 -0.6289079 -0.020386718 0.053154282
-0.041309096 -2.4602044 -0.01041127 0.042579897 0.017425828 -0.010520995 0.001201205 -0.016154505
-0.05199205 0.0075918287 -0.55270094 -0.02265925 -0.041045077 -0.004809417 -0.0196952 0.0508416
-0.03973289 0.031878203 -0.017047971 0.002317518 0.0110241175 -0.05290298 -0.05493813 0.0065107197
-0.02318912 -0.037439592 -0.050516255 0.041396976 0.012824185 -0.04395348 -0.027972125 -0.0330986

linear2.bias f4 [256]
00000000: 325a 46c0 d819 7440 bc46 f0be 62f6 0dbf
00000010: e2dc 59c1 a1a0 febe f693 1ebf b287 5841
00000020: 3b4a 3dc0 15af 98bf 17f3 02bf 9147 ccbf
00000030: 2282 ffbe 883d 85bf acd6 79bf 12d5 0bbf
00000040: e02d 0bbf 376e 40c0 0100 5dc0 095e 13bf
00000050: 6bd6 f9bf e01b 3d41 3f95 03bf 1ae5 19c0
00000060: 625d 9ebf 65b1 16bf 2d29 6bc0 4323 0abf
00000070: e69f 62c1 a1e4 1bbf 26bf 13bf cdb4 6bc0
00000080: a5dc c9bc 593d 1dc0 0da0 18c0 c0c6 0541
00000090: 836c 1abf 7bd0 8dbf 207e c4bf 7f5d 16bf
000000a0: 0393 3bbf 3776 1cc0 6a01 11c0 61db 3fc0
000000b0: 6dd0 49c0 a72c 13bf a26d 62c0 d12f 0bc0
000000c0: 9835 00c1 c06a f2be 5c18 d8bf d319 23c0
000000d0: 982d 96c0 3cce 0cbf eb00 52c0 821c 62c0
000000e0: 1b35 68c0 4fa6 12bf 0abb 59c0 d2f6 06c0
000000f0: 3943 66c0 057f 7fc0 ed5d 73c1 9089 15bf
00000100: fc74 dabf eb25 09bf ad28 1dbf d626 3ac0
00000110: 1f8e 11bf c698 19bf 75e7 b7bf 2f14 59c0
00000120: f6b5 40c0 fa7d 79c0 1fd0 97c0 719e b2bf
00000130: 6944 f940 6c30 adbf 46db dabe a5cb 18bf
00000140: a588 6bbf 2848 0e3f be69 10bf 969f d9bf
00000150: 5bc1 f1be 31ac 78c0 8fc6 e4be 5065 1a3d
00000160: 8bcd c9be 9f4e fbbe 13ab 07bf 52fc bc40
00000170: 411a 8041 5a28 0ec1 53ec 20bf 003e ccc0
00000180: 8d48 78c0 bf40 c1bf 3480 0abf d065 14c1
00000190: ff69 c3bf 2a48 dfbe d955 14bf 2fb7 16bf
000001a0: a477 9abf 6b3f b0bf 4c0d 67c0 729e 3e42
000001b0: d533 f4c0 5389 4140 75d4 4ac0 0bcb 13bf
000001c0: 5047 fec0 3117 fdbe 8342 8fbf ddae e0bf
000001d0: c739 3dc0 baec 28bf 6a52 31c1 e97c a2bf
000001e0: b64b 643e 5a86 12c0 bf7e b8bf 9878 8bbf
000001f0: bb6e 99c0 3a91 d7be b893 0ec0 48df 11bf
00000200: 0911 36c0 3cac 6abf 15be f5bf 82c7 a9bf
00000210: fbd6 bfbf 1e2c 20c1 c375 a93f 23fa 29bf
00000220: ad77 0bbf 5086 dcbf d512 f4bf d221 3fc0
00000230: c254 473f 4f07 46c0 973a 10bf d555 493f
00000240: 1c10 bdbf 2f7c 04bf 8665 15bf d292 fbbe
00000250: d198 b3bf 70db fbbf 5e47 0cbf 6296 c7be
00000260: 347b 0dbf 933c 84c0 a14a 39c0 981d 2441
00000270: 4178 c7bf aed2 dabe af95 13bf 8fa1 16bf
00000280: 4555 c43f 9e2d febf 7b63 10bf 24a9 bd3e
00000290: c7e5 36c0 e319 bfc0 8e81 1440 24b0 11bf
000002a0: 489d 11bf dc9d 17bf d827 eebf 6d58 61c0
000002b0: 4c5b 60c0 8e07 47c1 a68c 33c0 3118 acbf
000002c0: 022f 22c1 8332 5fc0 92b3 27bd 5a7c 25c0
000002d0: 8f72 99bf 9176 3ac0 5277 aabf cf45 0ebf
000002e0: 4d75 ffbf ad76 14bf e311 0bc0 ee92 12bf
000002f0: 368e d7bf 87f1 35c0 7321 1fc0 44be 593f
00000300: a73b 61bf 98e0 01c0 97bb c0bf 1646 bdbf
00000310: 71f0 fec0 0643 e1c0 4716 60c0 7759 60c0
00000320: 94a7 7dc0 2b3a 05bf 25d3 3ac0 2fdd 38c0
00000330: 3d4d 5ec0 2070 debe 59e1 77bf bd4d 54c1
00000340: 8010 01bf 1146 10bf 6adc f03f a1ae 0abf
00000350: ab1c 983e f772 b1c0 3944 e5c0 a999 cdbf
00000360: e57d 54c0 0ba9 87bf 992f 3fc1 de77 dabf
00000370: 94a7 35c0 a6fc 57c0 edde 59c0 fa29 a9c0
00000380: 828f b6bf 694b 25c0 fe0c 7f3f eb32 3dc0
00000390: 762c 52c1 a5cb cabe 49d7 05bf 4ddf 8ac0
000003a0: cfc8 ebc0 3ab4 7ac0 347f 14bf b1ad cebf
000003b0: b809 2340 c15b 2141 8a00 fec0 9718 91bf
000003c0: 6bf5 58c0 5d84 0fbf 15eb 0ebf 3f79 d4be
000003d0: 2ad2 8abf b1a1 bcbe 41c4 dabe 64a9 18bf
000003e0: 3fa3 68c0 3a75 8640 b568 4ac0 7126 abbf
000003f0: 3dbe 22bf 982e adc0 7617 9cbf 81cc 38c0
-3.099255 3.8140774 -0.46928966 -0.55454075 -13.616426 -0.49731925 -0.6194452 13.533129
-2.9576557 -1.1928431 -0.51152176 -1.595934 -0.4990397 -1.0409403 -0.9759319 -0.54621994
-0.54366875 -3.006727 -3.4531252 -0.5756536 -1.951856 11.819305 -0.51399606 -2.4046082
-1.2372248 -0.5886443 -3.6743882 -0.53960055 -14.164038 -0.60895735 -0.57713544 -3.6829102
-0.024641344 -2.4568694 -2.3847687 8.361023 -0.60321826 -1.1079248 -1.535099 -0.58736414
-0.732712 -2.4447153 -2.2657113 -2.9977648 -3.1533463 -0.5749001 -3.5379415 -2.1747935
-8.013084 -0.4734707 -1.6882434 -2.5484512 -4.6930656 -0.5500219 -3.281306 -3.53299
-3.6282413 -0.57285017 -3.402041 -2.1088147 -3.597853 -3.9921277 -15.210431 -0.5841303
-1.7066951 -0.53573483 -0.6139019 -2.9086204 -0.56857485 -0.5999874 -1.436751 -3.391857
-3.011106 -3.898314 -4.7441554 -1.3954602 7.789601 -1.3530402 -0.42745417 -0.59685737
-0.9200538 0.5557885 -0.5641135 -1.7001827 -0.4721783 -3.8855097 -0.44682738 0.037694275
-0.3941463 -0.4908342 -0.52995414 5.905801 16.01282 -8.884851 -0.628606 -6.3825684
-3.8794281 -1.5097884 -0.5410187 -9.274857 -1.5266722 -0.43609744 -0.57943493 -0.58873266
-1.2067761 -1.3769354 -3.6101866 47.65473 -7.631327 3.0240066 -3.1692173 -0.57731694
-7.946205 -0.49431756 -1.1192173 -1.7553364 -2.9566514 -0.65986216 -11.082621 -1.269437
0.22294506 -2.2894502 -1.441368 -1.0896177 -4.794767 -0.42102987 -2.227766 -0.56981325
-2.8447897 -0.9166906 -1.9198633 -1.326401 -1.4987482 -10.010771 1.3239063 -0.66397303
-0.54479486 -1.7228489 -1.9068247 -2.9864392 0.77863705 -3.094196 -0.563394 0.78646594
-1.4770541 -0.5175199 -0.5835804 -0.49135453 -1.4031011 -1.9676342 -0.547964 -0.3898192
-0.5526612 -4.1323943 -2.89518 10.257225 -1.5583574 -0.4273886 -0.57650274 -0.5884027
1.5338522 -1.9857671 -0.56401795 0.37043107 -2.8577745 -5.97191 2.3204074 -0.56909394
-0.5688062 -0.5922525 -1.8605909 -3.521022 -3.5055723 -12.439344 -2.8054595 -1.3444883
-10.1364765 -3.487458 -0.040942736 -2.5857148 -1.1988086 -2.9134867 -1.3317664 -0.5557527
-1.9957672 -0.57993585 -2.1729667 -0.57255447 -1.6840274 -2.8428667 -2.4864166 0.8505595
-0.8798165 -2.029333 -1.5057248 -1.4787014 -7.9668508 -7.0394316 -3.5013597 -3.5054605
-3.9633532 -0.5204188 -2.9191372 -2.8885 -3.4734643 -0.4344492 -0.9682823 -13.268979
-0.504158 -0.5635691 1.8817265 -0.5417271 0.29709372 -5.545284 -7.164578 -1.6062518
-3.320184 -1.0598463 -11.9491205 -1.706783 -2.8383532 -3.3747954 -3.4042313 -5.286374
-1.4262545 -2.5827277 0.996292 -2.9562328 -13.135855 -0.39608493 -0.52281624 -4.3397584
-7.368263 -3.9172502 -0.58006597 -1.6146756 2.5474682 10.084901 -7.937566 -1.1335629
-3.3899791 -0.56061345 -0.55827457 -0.41498753 -1.0845387 -0.3684211 -0.42727855 -0.5963347
-3.6349638 4.20181 -3.1626408 -1.3371106 -0.6357153 -5.4119377 -1.219466 -2.887482

linear3.weight f4 [4, 256]
00000000: a796 20bf 1e9f d340 fc9e d9be 97dc 243f
00000010: f923 3fc1 73e8 00bf a747 1b3f 4739 68c1
00000020: b506 20c0 b475 d7be c089 f4be ed68 853f
00000030: ebcc f9be be96 96be 96c0 edbe 934c 173f
00000040: a2ba 0b3f 2ac9 253d 4a43 e0be 063b 103f
00000050: 9724 9ebe 5a74 133f 88ff 0abf d12e 1a3f
00000060: 4042 2bbe b0f5 183c d406 0c3f c963 253f
00000070: b890 86bf 5283 163f 63c7 0e3f ccc7 193f
00000080: b1cc 5d40 3394 0fbb 00a4 6dbf fc26 12c1
00000090: 1a55 0f3f 921f 7a3d 5c15 c440 5c48 233f
000000a0: ee38 113f 2e7f f1bf de72 35c0 4cc9 d2bc
000000b0: 89b6 df3f 7f1b 0d3f dd41 1d40 353e 48bd
000000c0: 18f3 9fbf 50c8 e0be c548 303f 0eb6 ff3f
000000d0: 5ece 72c0 74be ba3c c395 37c0 2f0e 1c3f
000000e0: 85c2 4540 fd69 1a3f e69f 5840 b469 bbbe
000000f0: e841 1440 42fc 313f 6afa 1841 6be3 0d3f
00000100: 595a 30bf ba5f f63e eab0 0d3f eef4 ac3f
00000110: 17f4 103f 8a82 0d3f ae9a cd3e 701d bbbf
00000120: 4e16 283f 0cc0 343f d002 093f 9277 afbe
00000130: d23f 73c1 277d 083f d8dc d4be 5e29 0b3f
00000140: 49ae 0ac0 8a3a 17c0 7bca 113f 7aa5 53c0
00000150: 6ae3 d4be 26b7 4e3f 3543 ebbe fa1e 8240
00000160: 84b6 edbe 19a2 053f f25e 03bf 4871 7240
00000170: de4f 2441 2440 463e d1da 223f 7239 ef3e
00000180: c0bc 2041 4c12 23c0 aa2b 223f 21bf 8f40
00000190: 8f69 893f 3049 dfbe 0030 833b 889c 073d
000001a0: 29b9 1a3e 229f c0be a5ca 883e 880d 51c1
000001b0: 52be 61c0 0890 0a3f c9b3 28c0 6a6e 213f
000001c0: e0f1 c6c0 be94 01bf 5f2d 183f f97c d23f
000001d0: 208d 5cbf 370a 0e3f cdcd 2740 cb71 e13e
000001e0: de80 43be 9434 183f 6145 ab3e 4f42 0cc0
000001f0: f6f9 2b3f 2942 cbbe 281f a8be b7a9 1a3f
00000200: 6617 853f a307 263f 7a12 86be 1c6e 1441
00000210: 4a1e cebf 5749 933f 5bbe 1241 e2ae e3be
00000220: 2b51 04bf 8851 433f 1a31 cfbe 5585 1a40
00000230: c9ff 19c0 3598 0ac0 97ae 0cbf 7596 d0c0
00000240: b85b 513e 1202 02bf d700 173f 3014 0ebf
00000250: e15e abbe e29a 28c0 84d2 093f 7f79 d9be
00000260: af94 0f3f c34a cc3f 3cf5 42c0 3c3c 4abf
00000270: 196e 37bf e4fc e2be 73f7 0e3f a644 173f
00000280: f8d6 1bc0 c8f3 1ec0 1670 113f 9162 09c0
00000290: 689b ebbe fc8c fdc0 1871 3fc0 ab3f 0a3f
000002a0: c012 153f 8508 163f 8257 c0be 66d8 5a3f
000002b0: 5303 0e3f 68bd 2abf 422f 0bc0 3156 c4be
000002c0: fd93 5f40 015b 12c0 a791 04c0 2e88 16c0
000002d0: 6689 763d 87df ebbe 975e f6bd 0216 203f
000002e0: f40b 0d3f 1c1e 32bd fa90 c23e 8f20 0b3f
000002f0: 036c f1be b35d c73f c906 8e3f ec99 e5c0
00000300: 4ed8 d8bf 5cf3 4b3d 6919 30c0 fd36 003f
00000310: c3da cdc0 6841 0ec0 5e2b 8ebf 9c40 103f
00000320: 1032 1f3f 01a9 fcbe d85e 22bd b1ac 35c0
00000330: f506 13c0 4d20 c2be 72b7 9b3f f69c df3f
00000340: 49c1 0dbf 6256 213f 2036 0b41 b2eb f7be
00000350: a1ea 1cbf 28c5 f3c0 0fe1 9c3f 76b7 1d3f
00000360: b19f 1bbe 9648 263f 0cbc 07c1 e820 67be
00000370: 9847 07c0 ee23 1240 2e4a 873f 92e8 98be
00000380: 973d ce3e f66d 21c0 3d42 6240 f333 70c0
00000390: 0603 123f d601 cfbe 58bd 0bbf ebd4 3bbf
000003a0: a21d 993e 3167 bebf 9d29 0e3f 0236 953f
000003b0: cb70 713f c415 be40 64f5 0e3f f675 9cbe
000003c0: ea3a 1340 82da 00bd 2ec2 65bd dcc6 d1be
000003d0: 535a f9bf 4d2d b4be ff1b f2be 494e 08bf
000003e0: 29ba 123f bc5d ca40 79de b93f 32a0 c7bf
000003f0: 1d5f 0a3f 5cb5 973e d482 f8be 0ad6 19c0
-0.6272988 6.6131735 -0.42504108 0.64399093 -11.946282 -0.5035469 0.6065621 -14.513984
-2.5004094 -0.42081988 -0.47761345 1.0422646 -0.48789153 -0.29411882 -0.46435994 0.5910122
0.54581654 0.040475048 -0.43801337 0.5634006 -0.3088729 0.57599413 -0.5429616 0.60227686
-0.16724491 0.00933592 0.5469792 0.64605385 -1.0512915 0.5879413 0.5577299 0.6007049
3.4656184 -0.0021908402 -0.9282837 -9.134518 0.5598923 0.061065264 6.1276073 0.63782287
0.5672749 -1.8866937 -2.835136 -0.025730751 1.747758 0.5512008 2.457145 -0.04888745
-1.2496061 -0.43902826 0.6886104 1.9977434 -3.7938457 0.022795893 -2.8685157 0.6095914
3.0899975 0.60317975 3.3847594 -0.36604083 2.3165226 0.6952554 9.561136 0.5542514
-0.6888786 0.4811991 0.55348074 1.3512247 0.5662245 0.5527731 0.40157074 -1.4618359
0.65659034 0.7060554 0.53519917 -0.34270912 -15.203081 0.5331597 -0.4157474 0.54359996
-2.1668875 -2.362948 0.56949586 -3.306975 -0.41579753 0.8074821 -0.45949712 4.0662813
-0.4642831 0.52200466 -0.5131675 3.7881641 10.269499 0.19360405 0.6361514 0.46723515
10.046082 -2.5479918 0.63347876 4.492081 1.0735339 -0.43610525 0.004003525 0.033108264
0.15109695 -0.3762141 0.26717106 -13.065804 -3.5272412 0.54126024 -2.6359732 0.63059103
-6.2170258 -0.5061759 0.5944423 1.6444389 -0.8615284 0.55484337 2.621936 0.4403213
-0.19092128 0.5945523 0.3345137 -2.1915472 0.67178285 -0.39698914 -0.3283627 0.60415214
1.0397766 0.648554 -0.26185971 9.276882 -1.6102993 1.1506757 9.1714735 -0.44469362
-0.5168635 0.7629628 -0.4046715 2.414388 -2.406237 -2.16554 -0.549539 -6.5183663
0.20445144 -0.5078441 0.58985656 -0.55499554 -0.33470824 -2.6344533 0.53836846 -0.42475507
0.5608625 1.5960315 -3.046218 -0.7899816 -0.7165237 -0.44333565 0.5584633 0.59089124
-2.4349957 -2.4836292 0.56811655 -2.146641 -0.46017003 -7.92346 -2.9912777 0.540034
0.58231735 0.5860675 -0.37566763 0.8548645 0.5547382 -0.6669526 -2.1747594 -0.3834701
3.4934075 -2.2868044 -2.07139 -2.3520617 0.060189627 -0.46068975 -0.1202976 0.6253358
0.55096364 -0.043485746 0.38001233 0.54346555 -0.4715272 1.557547 1.1095821 -7.1750393
-1.6941011 0.049792632 -2.751551 0.50083905 -6.4329543 -2.222742 -1.1106985 0.56348586
0.62185764 -0.4934769 -0.03964123 -2.8386652 -2.2972996 -0.3791527 1.2165358 1.7469776
-0.55373055 0.63022435 8.700714 -0.4842201 -0.61295515 -7.617817 1.2256182 0.61608064
-0.15197636 0.6495451 -8.48341 -0.22571146 -2.1137447 2.283443 1.0569513 -0.29864937
0.40281364 -2.5223365 3.5352929 -3.7531707 0.57035863 -0.40431088 -0.5458579 -0.7337176
0.2990542 -1.4875242 0.55532247 1.1657107 0.94312733 5.940157 0.55843186 -0.30558747
2.3004708 -0.031458385 -0.056093387 -0.4097203 -1.948069 -0.35190812 -0.47286984 -0.53244454
0.5731531 6.323942 1.4521018 -1.5595763 0.5405138 0.29630554 -0.48537314 -2.403689

linear3.bias f4 [4]
00000000: 14bf b2c0 50f2 e83e de02 de3f baf5 e7c0
-5.585825 0.4549737 1.7344625 -7.248746
